Compile model with Adadelta optimizer
Model summary:
_________________________________________________________________
Layer (type)                 Output Shape              Param #
=================================================================
conv2d_1 (Conv2D)            (None, 78, 78, 32)        320
_________________________________________________________________
conv2d_2 (Conv2D)            (None, 76, 76, 64)        18496
_________________________________________________________________
max_pooling2d_1 (MaxPooling2 (None, 38, 38, 64)        0
_________________________________________________________________
dropout_1 (Dropout)          (None, 38, 38, 64)        0
_________________________________________________________________
conv2d_3 (Conv2D)            (None, 36, 36, 32)        18464
_________________________________________________________________
conv2d_4 (Conv2D)            (None, 34, 34, 64)        18496
_________________________________________________________________
max_pooling2d_2 (MaxPooling2 (None, 17, 17, 64)        0
_________________________________________________________________
dropout_2 (Dropout)          (None, 17, 17, 64)        0
_________________________________________________________________
conv2d_5 (Conv2D)            (None, 15, 15, 32)        18464
_________________________________________________________________
conv2d_6 (Conv2D)            (None, 13, 13, 64)        18496
_________________________________________________________________
max_pooling2d_3 (MaxPooling2 (None, 6, 6, 64)          0
_________________________________________________________________
dropout_3 (Dropout)          (None, 6, 6, 64)          0
_________________________________________________________________
flatten_1 (Flatten)          (None, 2304)              0
_________________________________________________________________
dense_1 (Dense)              (None, 220)               507100
_________________________________________________________________
dropout_4 (Dropout)          (None, 220)               0
_________________________________________________________________
dense_2 (Dense)              (None, 6)                 1326
=================================================================
Total params: 601,162
Trainable params: 601,162
Non-trainable params: 0
_________________________________________________________________
None

Model training
Epoch 1/10
90/90 [==============================] - 150s 2s/step - loss: 1.7010 - acc: 0.2883 - val_loss: 1.5985 - val_acc: 0.3368
Epoch 2/10
90/90 [==============================] - 149s 2s/step - loss: 1.4938 - acc: 0.3734 - val_loss: 1.4805 - val_acc: 0.4139
…
      8    0.224291   0.955281  0.262799  0.907939
      9    0.23545    0.950523  0.217162  0.923901
Model results on the ./test dataset:
Found 40 images belonging to 6 classes.
loss: 0.07311180233955383
acc: 0.9750000238418579

###################################################################
Otro modelo, con 1M mas de parametros:

ompile model with Adadelta optimizer
Model summary:
_________________________________________________________________
Layer (type)                 Output Shape              Param #
=================================================================
conv2d_1 (Conv2D)            (None, 78, 78, 8)         80
_________________________________________________________________
conv2d_2 (Conv2D)            (None, 76, 76, 16)        1168
_________________________________________________________________
conv2d_3 (Conv2D)            (None, 74, 74, 32)        4640
_________________________________________________________________
conv2d_4 (Conv2D)            (None, 72, 72, 64)        18496
_________________________________________________________________
max_pooling2d_1 (MaxPooling2 (None, 36, 36, 64)        0
_________________________________________________________________
dropout_1 (Dropout)          (None, 36, 36, 64)        0
_________________________________________________________________
conv2d_5 (Conv2D)            (None, 34, 34, 8)         4616
_________________________________________________________________
conv2d_6 (Conv2D)            (None, 32, 32, 16)        1168
_________________________________________________________________
conv2d_7 (Conv2D)            (None, 30, 30, 32)        4640
_________________________________________________________________
conv2d_8 (Conv2D)            (None, 28, 28, 64)        18496
_________________________________________________________________
max_pooling2d_2 (MaxPooling2 (None, 14, 14, 64)        0
_________________________________________________________________
dropout_2 (Dropout)          (None, 14, 14, 64)        0
_________________________________________________________________
flatten_1 (Flatten)          (None, 12544)             0
_________________________________________________________________
dense_1 (Dense)              (None, 128)               1605760
_________________________________________________________________
dropout_3 (Dropout)          (None, 128)               0
_________________________________________________________________
dense_2 (Dense)              (None, 6)                 774
=================================================================
Total params: 1,659,838
Trainable params: 1,659,838
Non-trainable params: 0
_________________________________________________________________
None

Model training
Epoch 1/10
1429/1429 [==============================] - 195s 137ms/step - loss: 1.2762 - acc: 0.4864 - val_loss: 0.7556 - val_acc: 0.7374                                                                                                                                                                              [1/4574]
…
