Compile model with Adadelta optimizer
Model summary:
_________________________________________________________________
Layer (type)                 Output Shape              Param #
=================================================================
conv2d_1 (Conv2D)            (None, 78, 78, 32)        320
_________________________________________________________________
conv2d_2 (Conv2D)            (None, 76, 76, 64)        18496
_________________________________________________________________
max_pooling2d_1 (MaxPooling2 (None, 38, 38, 64)        0
_________________________________________________________________
dropout_1 (Dropout)          (None, 38, 38, 64)        0
_________________________________________________________________
conv2d_3 (Conv2D)            (None, 36, 36, 32)        18464
_________________________________________________________________
conv2d_4 (Conv2D)            (None, 34, 34, 64)        18496
_________________________________________________________________
max_pooling2d_2 (MaxPooling2 (None, 17, 17, 64)        0
_________________________________________________________________
dropout_2 (Dropout)          (None, 17, 17, 64)        0
_________________________________________________________________
conv2d_5 (Conv2D)            (None, 15, 15, 32)        18464
_________________________________________________________________
conv2d_6 (Conv2D)            (None, 13, 13, 64)        18496
_________________________________________________________________
max_pooling2d_3 (MaxPooling2 (None, 6, 6, 64)          0
_________________________________________________________________
dropout_3 (Dropout)          (None, 6, 6, 64)          0
_________________________________________________________________
flatten_1 (Flatten)          (None, 2304)              0
_________________________________________________________________
dense_1 (Dense)              (None, 220)               507100
_________________________________________________________________
dropout_4 (Dropout)          (None, 220)               0
_________________________________________________________________
dense_2 (Dense)              (None, 6)                 1326
=================================================================
Total params: 601,162
Trainable params: 601,162
Non-trainable params: 0
_________________________________________________________________
None

Model training
Epoch 1/10
90/90 [==============================] - 150s 2s/step - loss: 1.7010 - acc: 0.2883 - val_loss: 1.5985 - val_acc: 0.3368
Epoch 2/10
90/90 [==============================] - 149s 2s/step - loss: 1.4938 - acc: 0.3734 - val_loss: 1.4805 - val_acc: 0.4139
…
